…
    "text": "Input independent baseline\n\nclass ConvBlock(nn.Sequential):\n    def __init__(self, ni, nf, stride=2):\n        super().__init__(nn.Conv2d(ni, nf, 3, stride=stride), nn.ReLU())\n\n\nclass CNN(nn.Sequential):\n    def __init__(self, n_classes, channels=[3,16,32,64,128,256]):\n        cnn_layers = [ConvBlock(ni, nf) for ni, nf in zip(channels, channels[1:])]\n        pooling = nn.Sequential(nn.AdaptiveAvgPool2d(1), nn.Flatten())\n        super().__init__(\n            *cnn_layers, pooling,\n            nn.Linear(channels[-1], n_classes)\n        )\n\n\nmodel = CNN(n_classes)\nmodel\n\nCNN(\n  (0): ConvBlock(\n    (0): Conv2d(3, 16, kernel_size=(3, 3), stride=(2, 2))\n    (1): ReLU()\n  )\n  (1): ConvBlock(\n    (0): Conv2d(16, 32, kernel_size=(3, 3), stride=(2, 2))\n    (1): ReLU()\n  )\n  (2): ConvBlock(\n    (0): Conv2d(32, 64, kernel_size=(3, 3), stride=(2, 2))\n    (1): ReLU()\n  )\n  (3): ConvBlock(\n    (0): Conv2d(64, 128, kernel_size=(3, 3), stride=(2, 2))\n    (1): ReLU()\n  )\n  (4): ConvBlock(\n    (0): Conv2d(128, 256, kernel_size=(3, 3), stride=(2, 2))\n    (1): ReLU()\n  )\n  (5): Sequential(\n    (0): AdaptiveAvgPool2d(output_size=1)\n    (1): Flatten(start_dim=1, end_dim=-1)\n  )\n  (6): Linear(in_features=256, out_features=37, bias=True)\n)\n\n\n\ndef set_zero(self):\n    imgs = self.xb[0] # `self.xb` returns a tuple\n    input = torch.zeros(imgs.size(), device=imgs.device)\n    self.learn.xb = (input,) # `self.xb` is read only\n\n\ndls = get_dls(bs=128, resize=224)\ncbs = Callback(after_batch=set_zero)\nlearn = Learner(dls, model, loss_func=nn.CrossEntropyLoss(), opt_func=SGD, metrics=
…
    "text": "Input independent baseline\n\nclass ConvBlock(nn.Sequential):\n    def __init__(self, ni, nf, stride=2):\n        super().__init__(nn.Conv2d(ni, nf, 3, stride=stride), nn.ReLU())\n\n\nclass CNN(nn.Sequential):\n    def __init__(self, n_classes, channels=[3,16,32,64,128,256]):\n        cnn_layers = [ConvBlock(ni, nf) for ni, nf in zip(channels, channels[1:])]\n        pooling = nn.Sequential(nn.AdaptiveAvgPool2d(1), nn.Flatten())\n        super().__init__(\n            *cnn_layers, pooling,\n            nn.Linear(channels[-1], n_classes)\n        )\n\n\nmodel = CNN(len(categories.vocab))\nmodel\n\nCNN(\n  (0): ConvBlock(\n    (0): Conv2d(3, 16, kernel_size=(3, 3), stride=(2, 2))\n    (1): ReLU()\n  )\n  (1): ConvBlock(\n    (0): Conv2d(16, 32, kernel_size=(3, 3), stride=(2, 2))\n    (1): ReLU()\n  )\n  (2): ConvBlock(\n    (0): Conv2d(32, 64, kernel_size=(3, 3), stride=(2, 2))\n    (1): ReLU()\n  )\n  (3): ConvBlock(\n    (0): Conv2d(64, 128, kernel_size=(3, 3), stride=(2, 2))\n    (1): ReLU()\n  )\n  (4): ConvBlock(\n    (0): Conv2d(128, 256, kernel_size=(3, 3), stride=(2, 2))\n    (1): ReLU()\n  )\n  (5): Sequential(\n    (0): AdaptiveAvgPool2d(output_size=1)\n    (1): Flatten(start_dim=1, end_dim=-1)\n  )\n  (6): Linear(in_features=256, out_features=37, bias=True)\n)\n\n\n\ndls = get_dls(32, augs=[Resize(112)])\nlearn = Learner(dls, model, loss_func=nn.CrossEntropyLoss(), opt_func=SGD, metrics=accuracy)\n\n\nlearn.fit(n_epoch=10, lr=1e-2)\n\n\n\n\n\n\n\n\nepoch\ntrain_loss\nvalid_loss\naccuracy\ntime\n\n\n\n\n0\n3.213014\n3.190797\n0.132612\n01:16\n\n\n1\n3.206754\n3.148360\n0.140731\n01:14\n\n\n2\n3.180439\n3.13
…
